src/last_brain.pth (torch_old, 5246 bytes, 12 tensors)

full_conn_1.weight f4 [30, 5]
00000000: ce39 7e3f 8146 1d3f c3f2 2e3f 93f6 d3bf
00000010: 4642 b5bc 4220 25bf fcdc 8a3d 19c4 ee3c
00000020: 49bc 873e 7e22 d73d 5fde bf3d d43c 953f
00000030: adaa 223f 3c48 24be 05bf 173d 5fc5 ca3f
00000040: 9606 593e 4e97 cebf 39bc f53d 290e 463d
00000050: 06cc 2e3f 7eb2 383f e34a 423f 4aa2 efbe
00000060: 176e 13ba f2f8 fdbc 54ab 06bf fc1e 663e
00000070: 4394 213f 52f0 223e 8bea 2d3d 6a6c 173f
00000080: c4f5 aebe 1f74 cb3e 55a2 ef3d 8c5e b83d
00000090: 1b9e d9be d12d 9d3e 2479 833e dea1 1e3d
000000a0: 261f a33e 2ca1 b1bf c2ef 883f 5837 2a3e
000000b0: cdd8 0eb8 a425 833d 6fb6 303f 29bb 463f
000000c0: ac87 26be c1fa 4d3d 4d2c b93e 983b 963f
000000d0: 7842 46be 16e1 a4bf 8d59 31bb af97 3f3e
000000e0: bdf7 293f 62d9 533f 9ebd 7bbf 8c83 6b3e
000000f0: e15e 973f 016d 623f 1189 d1bd 9922 94be
00000100: ce05 75bc 067b 0dc0 5d33 b03f 24b3 5d3e
00000110: a5fe dbbd e58b 22be 257a a93e 5557 9a3f
00000120: 894b 113f 616d cebf afbe 94b8 31d6 4fbd
00000130: 8e5a c83d e398 a9be cdda 87bd 5bc3 07be
00000140: 1dd2 4a3f 2f87 6e3f 6076 943e 80be 0cbf
00000150: 8a3e 74bb fe8b d3be 1889 f73d 300b ea3c
00000160: b8ac 3f3e f1de ba3e 7c54 6abf 1f44 fc3e
00000170: 7ebd ea3d d67a ca3e 9060 9f3e 9486 683f
00000180: d3dc 533f 3723 983d 7643 c9bf e5e7 943e
00000190: c0a0 5d3d 42e6 7bbe c81e e93d c0a6 14bd
000001a0: 5a7e 00be 0376 15bf 174e 7abf 3761 b23e
000001b0: 3450 7cbd 9053 d2bc 3e0f 9e3f 0289 f9be
000001c0: 7dd9 c23e 6772 be3f 0fd9 a5bf a9d4 72be
000001d0: 8cce b7be e05d 3b3e 6b78 81be 3886 6d3d
000001e0: 586f a1be 3124 543f 4b2d 8a3f 4c32 d4be
000001f0: 6602 12b9 8850 73bd 4062 503d 0702 7dbe
00000200: 8ede e1bc 0e5a 28be 6e2f c43a cf90 7e3f
00000210: e647 3f3f 4e10 21bf 522d 963e d6a3 023f
00000220: 7ba9 4d3f a5ed 2c3f 3e2e abbf 5bf7 113e
00000230: ccf3 3e3d 0e48 82be 7253 213e a177 efbd
00000240: 6430 cfbe 3251 8d3f 1b20 3e3f 2d6c 1f3f
00000250: 6ac2 3f3f 01e8 01bf
0.9930695 0.61435705 0.68339175 -1.6559623 -0.022126328 -0.64502347 0.06780431 0.029146241
0.26510838 0.10504626 0.09368586 1.1659188 0.6354168 -0.1604318 0.037047405 1.5841483
0.21193919 -1.6139925 0.11998791 0.048353348 0.68280065 0.7214736 0.7589552 -0.46803504
-0.00056240096 -0.031002495 -0.52605176 0.22472757 0.63116854 0.15911987 0.042460006 0.591498
-0.3417188 0.3973703 0.11700884 0.090024084 -0.42503437 0.30699018 0.2567836 0.038728587
0.31859702 -1.3877311 1.0698168 0.16622674 -3.405735e-05 0.06403664 0.6902837 0.77629334
-0.16262692 0.050287966 0.3616661 1.1736937 -0.19361293 -1.2881191 -0.0027061433 0.18710206
0.66393644 0.82753575 -0.9833621 0.229994 1.182583 0.88447577 -0.102312215 -0.28932646
-0.014954997 -2.2106338 1.3765675 0.21650368 -0.10741929 -0.15873678 0.33101 1.2057902
0.5675588 -1.612713 -7.0927075e-05 -0.05074138 0.09782897 -0.33124456 -0.0663353 -0.13258116
0.7922686 0.93175024 0.28996563 -0.5497818 -0.0037268721 -0.41317743 0.120866954 0.028569788
0.1871823 0.36498216 -0.9153516 0.49270722 0.11461924 0.3954684 0.3112836 0.9083035
0.82758826 0.07428592 -1.5723712 0.2908317 0.05410838 -0.24599555 0.11382824 -0.036291838
-0.125482 -0.58383197 -0.97775406 0.34839794 -0.061599925 -0.025674611 1.2348402 -0.4873734
0.38056555 1.4878663 -1.2956866 -0.23713936 -0.3589977 0.18297529 -0.25287184 0.05798933
-0.3153026 0.82867724 1.0795072 -0.41444623 -0.00013924539 -0.059402972 0.05087495 -0.24707805
-0.027571943 -0.16440603 0.0014967748 0.9943971 0.74719083 -0.62915504 0.29331452 0.51031244
0.8033673 0.67550117 -1.3373487 0.14254515 0.04661922 -0.25445598 0.15754488 -0.11692739
-0.40466607 1.1040404 0.7426774 0.6227444 0.7490603 -0.50744635

full_conn_1.bias f4 [30]
00000000: c21f 98be 2ac0 523f 82bf a43e a5d1 68be
00000010: 4544 143e ffe5 623f bc8b eb3e b84a d7be
00000020: 00d1 213f e16f bc3e 010d 13be c969 dbbe
00000030: da5d 0d3f 0aca 1d3f f99e a2be 6254 22be
00000040: 14a2 413f 3c26 c5be 812d b63e f2eb eabd
00000050: 10d8 41be 42a7 a83f c172 0abf 420e c0be
00000060: caa4 053e 2e25 4fbe 3f47 96be ac57 e23e
00000070: a4a9 95be 0ee3 ffbe
-0.2971173 0.8232447 0.3217736 -0.22736223 0.14479168 0.88632196 0.46005046 -0.42049193
0.63209534 0.36804107 -0.1436043 -0.42854145 0.5522133 0.6163641 -0.31761912 -0.15852502
0.75637937 -0.38505733 0.35581592 -0.11470784 -0.18930078 1.3176043 -0.5408135 -0.37510878
0.13051143 -0.20229027 -0.2935123 0.44207513 -0.29230988 -0.49977916

full_conn_2.weight f4 [3, 30]
00000000: 202f a6be 0cc6 533d 8050 5ebd 1719 813a
00000010: bf7c 0bbc d99d 283e 995d 923d 2dbb 033c
00000020: 5ba5 cc36 5093 05bd 7bb5 bdbd 19b0 9cbc
00000030: c94d 3ebf 8d15 d13f 41f4 5abd c0d4 b4bb
00000040: bf06 c9be b4fd 0ebe 86e0 0f3e 9b37 91bd
00000050: 182a 40bd c7d9 473f 3ffb 6fbf 2172 1c3e
00000060: 91df e1b9 8beb 26be 825b 65bd e213 dbbd
00000070: cb5b ec3d 670a 16bf 480f 3f3e 54f0 f33b
00000080: d3bf a2be a183 8b3f 97a8 e3bd e65f 513e
00000090: ad49 21bf 2c9f 23be 466d 933f df85 9cbe
000000a0: 7532 623d 548d b8be fc84 b6bc f773 95be
000000b0: 1576 08bf efc2 ea3b 1534 b2bd e207 193e
000000c0: b77e 6ebe cdd1 1f3e f849 363d ca09 7b3f
000000d0: ab0b 86bf f06a 1bbc fc3a f4be 07c7 513c
000000e0: 6e86 fbbe 2343 92bd 1ccd a23d ed52 4ebf
000000f0: 8a29 25bf 9d19 0f3f 5627 04be 40b9 2b40
00000100: e564 67be bd12 9e3e f8fb 6f3f 19e4 81bd
00000110: ced0 79bf 533d 5fbe 0e0b 843e 7b14 72be
00000120: 6400 94be e720 d03e 7e01 9a3d 2f39 a0bd
00000130: facf 5dbe 10ed c0bc c402 073f 3fc9 e63d
00000140: 0acf 2a3e 4c54 bc3e 06a3 48bf cc7f 38be
00000150: 6dda 94be 2c3c 41bd 9e7c 98bd 8396 82be
00000160: 1682 aabd b222 61bf
-0.3245783 0.051702544 -0.05427599 0.0009849396 -0.0085136285 0.16466464 0.071467586 0.008040232
6.0989237e-06 -0.03261119 -0.0926313 -0.019126939 -0.7433744 1.6334702 -0.053455595 -0.005518526
-0.3926296 -0.13963968 0.14050493 -0.07090684 -0.046915144 0.78066677 -0.93742746 0.15277912
-0.00043081914 -0.1630079 -0.05599547 -0.10697152 0.115409456 -0.5860962 0.18658173 0.007444421
-0.31786975 1.0899545 -0.1111614 0.20446739 -0.63003045 -0.15978688 1.1517723 -0.30570886
0.0552239 -0.36045325 -0.022280209 -0.29190037 -0.5330518 0.007164351 -0.0870134 0.14944413
-0.23290525 0.15607376 0.044504136 0.9806181 -1.0472311 -0.009485945 -0.47701252 0.0128037995
-0.49126 -0.071417116 0.07949278 -0.80595285 -0.6451651 0.5589846 -0.1290563 2.6831818
-0.22597082 0.3087367 0.9374385 -0.06342334 -0.97584236 -0.21800737 0.25789684 -0.23640625
-0.28906548 0.40650102 0.07519816 -0.07823407 -0.21661368 -0.02355054 0.52738595 0.112688534
0.16680542 0.36783063 -0.78373754 -0.180175 -0.29072896 -0.047176525 -0.07445644 -0.25505456
-0.08325593 -0.87943566

full_conn_2.bias f4 [3]
00000000: b641 89be 463c 203d 6c5e 933e
-0.26807946 0.03911998 0.28782976

exp_avg f4 [30, 5]
00000000: 8dfd 8bb8 17f8 f739 32e3 6f3a f43c 03bb
00000010: f43c 033b ce94 773a 5a54 0139 8ca0 3339
00000020: e5d7 7b3a 5c9e 5eba ac90 4038 3335 9039
00000030: dd21 62b9 3b7c 0bba cf40 ea39 d806 3c3b
00000040: 5c1f 283b dbb2 ff3a 92a3 003b 0a90 ffba
00000050: 145e d2b9 caa3 29b8 2ba8 71b9 0a76 a1b9
00000060: 0976 a139 02fd cdb8 13bf 06ba 1a35 61b9
00000070: 216e ac3a 80cd 82ba dd1a f93a 55bb 143a
00000080: ffda 8db9 bc45 aa3a 03ea 96ba 0400 0000
00000090: 0400 0000 acdd bf0f 0400 0080 5cc9 ec37
000000a0: 3413 acb8 d7b9 60ba 2ff3 4238 8d60 3dba
000000b0: 1462 3d3a e9f5 73b9 efd7 1439 fc3c b4b9
000000c0: af83 08ba fe0f f939 f87b 653a c8ce a339
000000d0: adf7 143a 1b9b 83b9 1c9b 8339 c3f9 f737
000000e0: 5391 b939 4b51 aab9 91d0 aeb9 07e7 a439
000000f0: d0a7 243b 38db 243b 72ef 2e3b acd1 8ebb
00000100: add1 8e3b acfd db3a 6cde a63a 158a f73a
00000110: 5ab9 d73a 57b9 d7ba 8167 d739 d5fd 8d39
00000120: e109 90b8 3969 15ba 3c69 153a 0400 0000
00000130: 0400 0000 0000 0000 0400 0000 0400 0080
00000140: 5dfb 9e3a bf06 ae3a 667f a83a 0111 1dbb
00000150: 0311 1d3b 0000 0000 0000 0000 bc0b 4991
00000160: 0000 0000 ae1d 78b9 4f02 153a fe93 57b9
00000170: 55e7 4d39 5560 143a ad57 99b9 0160 e839
00000180: 0748 8039 8c11 e939 1da2 37b9 59c2 8438
00000190: 0000 0000 0000 0000 0000 0000 0000 0000
000001a0: 0000 0000 482c f0ba 58ad 0bbb 6ece e1ba
000001b0: 8feb a73b 8eeb a7bb 1b8a 33bb 055d e2ba
000001c0: 75bb 59bb f376 59ba f276 593a 0000 0000
000001d0: 0000 0000 3ea2 7b11 0000 0000 1646 9b39
000001e0: d769 edb9 dac0 8d38 34f3 36ba 937e 2bba
000001f0: 937e 2b3a 0000 0000 0000 0000 0000 0000
00000200: 0400 0000 0400 0080 170e e938 4b7b 9839
00000210: af89 fab8 a116 1bba 3ddd 043a 5e13 83b8
00000220: 9084 a039 5844 4639 cb09 46ba 956c 173a
00000230: 0400 0000 0400 0000 0400 0000 0400 0000
00000240: 0400 0080 a36f 5c3a fa7b 1e3b 58a7 743a
00000250: 75b3 82bb 74b3 823b
-6.675264e-05 0.00047296353 0.0009150981 -0.0020025345 0.0020025345 0.0009444476 0.00012333822 0.00017130579
0.0009607061 -0.00084922253 4.5911103e-05 0.00027505457 -0.00021565655 -0.0005320941 0.00044680244 0.0028690603
0.0025653457 0.0019508259 0.0019628746 -0.0019497883 -0.00040124415 -4.044528e-05 -0.00023046198 -0.0003079626
0.00030796256 -9.822288e-05 -0.00051401666 -0.00021477454 0.001315538 -0.0009979457 0.0019005198 0.00056736666
-0.0002705678 0.0012990753 -0.0011513833 6e-45 6e-45 1.8919439e-29 -6e-45 2.8227158e-05
-8.205176e-05 -0.0008572614 4.6479687e-05 -0.0007224165 0.00072243926 -0.00023265895 0.00014194821 -0.00034377712
-0.00052076107 0.00047504896 0.00087541295 0.00031243847 0.00056826585 -0.0002510183 0.00025101833 2.9560999e-05
0.00035394225 -0.00032485495 -0.0003334326 0.00031452646 0.0025124438 0.0025155079 0.0026693013 -0.004358491
0.0043584914 0.0016783974 0.0012731082 0.0018885756 0.0016458437 -0.0016458434 0.00041085112 0.00027082735
-6.868295e-05 -0.00056995783 0.000569958 6e-45 6e-45 0.0 6e-45 -6e-45
0.0012129355 0.0013277157 0.001285535 -0.0023966434 0.0023966439 0.0 0.0 -1.585972e-28
0.0 -0.0002366218 0.0005684243 -0.00020559129 0.00019636501 0.00056601065 -0.00029247758 0.00044322017
0.00024467727 0.00044454297 -0.00017512632 6.3304506e-05 0.0 0.0 0.0 0.0
0.0 -0.0018323744 -0.0021313038 -0.0017227659 0.0051245163 -0.005124516 -0.002739555 -0.0017270154
-0.0033223305 -0.0008295618 0.00082956173 0.0 0.0 1.9850403e-28 0.0 0.00029616122
-0.0004528302 6.759325e-05 -0.0006978989 -0.00065419934 0.00065419934 0.0 0.0 0.0
6e-45 -6e-45 0.0001111293 0.0002908356 -0.000119465745 -0.0005916153 0.00050683675 -6.250174e-05
0.00030616345 0.00018908211 -0.000755456 0.0005776373 6e-45 6e-45 6e-45 6e-45
-6e-45 0.0008408969 0.0024182783 0.00093327975 -0.003988678 0.0039886776

exp_avg_sq f4 [30, 5]
00000000: 842f a437 7df9 aa37 1ec2 9437 54e2 f136
00000010: f7a0 8d41 003a 0437 e202 5f37 65b1 cb36
00000020: 151c 7836 14e7 5446 584e 9a36 3a0d 9336
00000030: 9757 6b36 66c6 3236 5525 4a46 b08d b038
00000040: f7b3 ce38 7dec cd37 c984 bd37 b9c0 7543
00000050: 87c6 f435 2a68 3036 bd80 b935 8bd2 2e35
00000060: 377e ba42 5af2 ee36 43c7 fe36 114f c936
00000070: 28ec 8736 14f2 d647 3b4a 1c38 0ac8 5f38
00000080: 1f89 e837 1594 9b37 4e06 ba46 78cb 192f
00000090: 7f3e 2d2d 8605 162f aa67 fd2d 6969 9144
000000a0: 04f7 6038 a542 4538 5682 7038 aa22 0538
000000b0: 835e b540 8410 9a36 78ad a936 62e7 6336
000000c0: 3a8c 2b36 bdb7 8945 12de 0336 6d9d 4836
000000d0: 7723 e435 d58c 2935 e957 0841 f114 9436
000000e0: ee77 9c36 1d2c 7436 8172 d535 6d1f 6944
000000f0: a7a7 6638 ad47 2838 3db3 7238 f784 0e38
00000100: ee2c be41 ae5d 2d38 373f 7338 23c9 6138
00000110: 4f77 2c38 5077 2c38 7bc8 2137 92b5 1137
00000120: ffef 0337 dc23 8236 1c1e 0245 af6f 3c29
00000130: aeb2 f12a 0000 0000 62c3 9e2b 62c3 9e2b
00000140: 88a4 9037 6bd0 5d37 f703 9537 1bbd 2c37
00000150: 5896 9d43 0000 0000 0000 0000 f401 0000
00000160: 0000 0000 8b23 8347 fbd6 e936 ae62 4637
00000170: 32e8 e036 311e 8f36 028a 9c47 cd49 be35
00000180: 928d c535 9dbc a235 14de 0135 2853 8046
00000190: 0000 0000 0000 0000 0000 0000 0000 0000
000001a0: 0000 0000 a96c 9e38 a4c1 7838 ed2f aa38
000001b0: 1a04 5f38 03b8 ea42 5c0f 9338 b310 7638
000001c0: 960d 6138 a0d4 0438 a0d4 0438 0000 0000
000001d0: 0000 0000 f401 0000 0000 0000 6c35 c347
000001e0: 17c7 2637 00e3 3e37 8ea7 fd36 d311 8f36
000001f0: e277 8d40 0000 0000 0000 0000 0000 0000
00000200: d5f7 392a d5f7 392a 2854 0a37 22f2 0637
00000210: 7906 da36 88c5 7436 ac24 1b46 a73b 5236
00000220: a374 7736 78e8 3436 8075 ac35 1fc2 1c47
00000230: 2e01 7d2f 2e01 7d2f 2e01 7d2f 07e1 742f
00000240: 07e1 742f 12df 9738 ece6 9538 1b80 7838
00000250: c99f 1d38 c99f 1d38
1.957245e-05 2.0381756e-05 1.7733368e-05 7.2087078e-06 17.703596 7.881317e-06 1.3292507e-05 6.070523e-06
3.6971226e-06 13625.77 4.598678e-06 4.382481e-06 3.5068713e-06 2.663955e-06 12937.333 8.418725e-05
9.8563665e-05 2.4548028e-05 2.2592389e-05 245.75282 1.8237196e-06 2.6286675e-06 1.3821042e-06 6.512643e-07
93.24651 7.121166e-06 7.592987e-06 5.9994713e-06 4.0508057e-06 110052.16 3.726243e-05 5.3353644e-05
2.7720407e-05 1.8546396e-05 23811.152 1.3987556e-10 9.847788e-12 1.3644383e-10 2.8808806e-11 1163.2941
5.3635813e-05 4.7030528e-05 5.7341844e-05 3.1741954e-05 5.667787 4.5914803e-06 5.056787e-06 3.3960318e-06
2.5562608e-06 4406.9673 1.9649783e-06 2.9893956e-06 1.6997645e-06 6.3162344e-07 8.521462 4.4131816e-06
4.663124e-06 3.638451e-06 1.5903062e-06 932.491 5.499241e-05 4.0121075e-05 5.7864225e-05 3.397927e-05
23.771938 4.133366e-05 5.7994588e-05 5.3831503e-05 4.111911e-05 4.1119114e-05 9.643026e-06 8.684949e-06
7.864087e-06 3.8784765e-06 2081.8818 4.1841256e-14 4.2934184e-13 0.0 1.1280805e-12 1.1280805e-12
1.7242754e-05 1.3221153e-05 1.776403e-05 1.0296028e-05 315.17456 0.0 0.0 7e-43
0.0 67143.086 6.968968e-06 1.1824695e-05 6.7027513e-06 4.265247e-06 80148.016 1.4177582e-06
1.4718846e-06 1.2124834e-06 4.837941e-07 16425.578 0.0 0.0 0.0 0.0
0.0 7.5542666e-05 5.930815e-05 8.1151586e-05 5.3171163e-05 117.3594 7.012367e-05 5.8666523e-05
5.3656833e-05 3.1669275e-05 3.1669275e-05 0.0 0.0 7e-43 0.0 99946.84
9.940725e-06 1.1377735e-05 7.5594935e-06 4.263807e-06 4.420884 0.0 0.0 0.0
1.6517285e-13 1.6517285e-13 8.245035e-06 8.043398e-06 6.49766e-06 3.6473812e-06 9929.168 3.132716e-06
3.687376e-06 2.6957405e-06 1.2849196e-06 40130.12 2.3010635e-10 2.3010635e-10 2.3010635e-10 2.2271616e-10
2.2271616e-10 7.241791e-05 7.147886e-05 5.9247115e-05 3.758053e-05 3.758053e-05

exp_avg f4 [30]
00000000: 03db 853a 11a4 61b9 518b b2b9 fe83 293b
00000010: bdff 8bb8 92ab afb9 21f6 b5ba 70e6 782d
00000020: cd89 1a3b 4198 d6b9 2892 9339 afa4 cc39
00000030: c086 4e3b 6768 4538 f675 ca39 0400 0000
00000040: 7054 c83a 8a67 02af c2c2 87ba 9260 cd39
00000050: 0000 0000 10e4 26ba 0818 23bb a337 232f
00000060: 4053 85ba 0400 0000 cf35 c339 ed88 f139
00000070: 0400 0000 5eee 953a
0.0010212365 -0.00021518792 -0.00034054604 0.0025866027 -6.6756715e-05 -0.0003350643 -0.0013882556 1.4148335e-11
0.002358067 -0.000409307 0.0002814692 0.0003903261 0.0031513423 4.7065692e-05 0.0003861633 6e-45
0.0015283953 -1.1860216e-10 -0.0010357725 0.00039172597 0.0 -0.00063663814 -0.002488615 1.484453e-10
-0.0010171905 6e-45 0.0003723339 0.0004606912 6e-45 0.0011438837

exp_avg_sq f4 [30]
00000000: f06e dc37 db46 b337 8395 1837 a357 e138
00000010: d1dc 7236 ab6a 7037 c9ae d438 a55b ea2f
00000020: f5e7 1139 2ff1 1f37 6e44 6d36 08be c936
00000030: b317 c538 10e5 6c39 a335 4d37 52d8 b62b
00000040: 2763 ed37 4ae6 9032 1dd4 bf37 761b 0b36
00000050: 0000 0000 b0fd 2339 b02e 0c39 53b1 d732
00000060: 27cd a037 35f7 422a 97f7 3837 98d4 bc36
00000070: 2e01 7d2f 0c46 d838
2.6277703e-05 2.1371457e-05 9.094717e-06 0.0001074516 3.6189342e-06 1.432995e-05 0.00010141504 4.262947e-10
0.00013914688 9.533293e-06 3.5355583e-06 6.0123893e-06 9.398106e-05 0.00022592046 1.223144e-05 1.2991919e-12
2.8298773e-05 1.686853e-08 2.2867747e-05 2.0728598e-06 0.0 0.00015639397 0.00013368833 2.5109932e-08
1.9169018e-05 1.7316429e-13 1.1024901e-05 5.627586e-06 2.3010635e-10 0.0001031273

exp_avg f4 [3, 30]
00000000: bbf7 76bc 08b2 eab8 5531 1abc 5fc4 c738
00000010: 861b 39bc e79a 6139 a119 9dba ca57 b438
00000020: 54a8 0bbb d658 09bc 3690 24bc 0335 1fbc
00000030: 6983 3dbc 3c80 6c39 f2c6 61bc 0000 0000
00000040: 8dad 64bc 6f9a 293a 82e4 4a3a 0845 6bbc
00000050: 0000 0000 34a7 9fba 9a7f 023b 7511 0139
00000060: 2544 0abc 0000 0000 c920 12bc 0109 87bc
00000070: 0400 0000 93d2 dfba e1b6 47ba 3423 e03a
00000080: 1e08 263a 1e63 fdba ee83 7139 798b 123b
00000090: 3c11 8439 0000 0000 3c98 1e3b b621 903a
000000a0: 029f b0ba c98c 98b9 790c ab38 ac3b a73a
000000b0: a5fb 60ba 0400 0000 3d78 683a 0000 0000
000000c0: 5e65 593a fb33 c6ba 0000 0000 e5e5 483b
000000d0: a749 b3b9 0000 0000 74bf 563a 0400 0000
000000e0: c83d 7cb9 c102 86b7 0000 0000 ba40 be39
000000f0: c144 bf3a bbcc 8fba 7237 843a be34 b03a
00000100: f76e f23a b5ea b739 2462 0c3a 0400 0000
00000110: 4a2b 5439 bf35 453a 8b7d d4b7 20bd c939
00000120: 7061 263b 782b 63bb 51bc a639 0400 0000
00000130: 7946 db3a 0000 0000 e19b baba 5964 593a
00000140: 0000 0000 3039 b5ba d4c7 873b 0000 0000
00000150: b869 c138 0000 0000 5030 0639 af0b 073a
00000160: 0000 0000 8823 5d3b
-0.015073712 -0.000111911504 -0.009411176 9.5256364e-05 -0.011298066 0.00021515378 -0.0011985787 8.599421e-05
-0.0021310048 -0.008382997 -0.010044148 -0.009717229 -0.011566975 0.00022554485 -0.013780342 0.0
-0.013957393 0.0006469851 0.0007739739 -0.01435972 0.0 -0.0012180568 0.0019912482 0.00012308902
-0.0084390985 0.0 -0.008918949 -0.016483786 6e-45 -0.0017076306 -0.00076184986 0.0017100335
0.0006333607 -0.0019331907 0.00023032699 0.0022360964 0.00025189843 0.0 0.0024199625 0.0010996375
-0.0013475122 -0.00029096592 8.1562386e-05 0.0012758872 -0.000858242 6e-45 0.00088680146 0.0
0.0008292998 -0.0015121693 0.0 0.0030654606 -0.00034196416 0.0 0.0008191981 6e-45
-0.00024055608 -1.5975327e-05 0.0 0.0003628785 0.0014592634 -0.0010971049 0.0010087325 0.0013443453
0.0018496205 0.0003507935 0.00053552 6e-45 0.00020234022 0.00075229624 -2.533083e-05 0.00038478617
0.0025387667 -0.003466336 0.00031802294 6e-45 0.0016729377 0.0 -0.0014237129 0.0008292846
0.0 -0.0013826247 0.0041436944 0.0 9.222649e-05 0.0 0.00012797234 0.00051515823
0.0 0.0033743102

exp_avg_sq f4 [3, 30]
00000000: 5365 743b 4c48 4647 6755 ac45 5881 e746
00000010: bc54 983e cd32 c947 ae22 6b47 95ea 5b46
00000020: 828d 8646 6abe 3646 ffbf b33c 6c17 6148
00000030: 2ca7 213a ac97 7238 30d7 8141 0000 0000
00000040: f36b fd3d e6cf eb48 fec8 b748 acbb 9848
00000050: 0000 0000 8c78 e93a d4cf aa38 b565 7c46
00000060: 5687 3841 0000 0000 9652 9d48 33fa 8e47
00000070: d84e 0d2d b90f 2d39 f060 1139 0a22 0d38
00000080: bcae 1339 e42f f337 1ebf 1c39 49a1 5b38
00000090: 3315 2e38 0000 0000 ee92 5538 0944 d638
000000a0: 262d 7b38 fb30 5d38 571c 7c39 d4be f637
000000b0: ad70 e038 1bb5 282c 5573 8f39 0000 0000
000000c0: eb95 0a37 92da 0539 0000 0000 1728 9d38
000000d0: 73e9 ea38 0000 0000 381d a438 f7ef 1f2a
000000e0: 83f5 8d38 eb43 5239 0000 0000 54a1 1c39
000000f0: a5ab 2638 9fb0 2338 6202 1039 80a5 8737
00000100: fe11 d838 7586 2f38 a698 5e38 4b0d 712d
00000110: 1c06 9c37 0c68 b638 3d06 ef37 f1f9 5637
00000120: 1d40 4439 8af2 bd38 3e2d 2538 fb38 9628
00000130: f8d3 5a39 0000 0000 2991 a837 f1a8 1538
00000140: 0000 0000 a8c7 2e38 9568 b738 0000 0000
00000150: d876 8338 0000 0000 eaea 2938 3f8a c138
00000160: 0000 0000 8ffb 1839
0.003729184 50760.297 5514.6753 29632.672 0.29752147 103013.6 60194.68 14074.6455
17222.754 11695.604 0.021942137 230493.69 0.0006166573 5.783855e-05 16.230072 0.0
0.12374105 482943.2 376391.94 312797.38 0.0 0.0017812415 8.144943e-05 16153.427
11.533041 0.0 322196.7 73204.4 8.032429e-12 0.00016504423 0.0001386439 3.364872e-05
0.00014084106 2.8990158e-05 0.00014948516 5.2363877e-05 4.1504576e-05 0.0 5.0919996e-05 0.00010216988
5.988511e-05 5.2736123e-05 0.0002404315 2.9414346e-05 0.0001070214 2.397477e-12 0.00027361015 0.0
8.2603465e-06 0.00012765292 0.0 7.493811e-05 0.00011201473 0.0 7.825572e-05 1.4205291e-13
6.769134e-05 0.00020052462 0.0 0.00014937419 3.973734e-05 3.902672e-05 0.00013733798 1.6170321e-05
0.00010303034 4.1848474e-05 5.307109e-05 1.3702216e-11 1.8599494e-05 8.6978165e-05 2.8493925e-05 1.2813588e-05
0.000187159 9.057399e-05 3.93812e-05 1.6678057e-14 0.00020869065 0.0 2.0094756e-05 3.5681707e-05
0.0 4.1670777e-05 8.7456e-05 0.0 6.268703e-05 0.0 4.051152e-05 9.2287075e-05
0.0 0.00014589562

exp_avg f4 [3]
00000000: 4422 8cbb e524 ee3a 2c5f 9ab7
-0.0042765457 0.0018168954 -1.8402548e-05

exp_avg_sq f4 [3]
00000000: 3f76 3339 bc86 a538 7981 8f38
0.0001711482 7.892909e-05 6.8428875e-05
